best_model.pth (torch, 13862 bytes, 5 tensors)

0.weight f4 [32, 18]
000000 b7 ef 3f 3e 23 04 5a 3e f8 90 4f bd bd 49 6b 3e
       0.18743788 0.2129064 -0.050675362 0.22977348
000010 9b ee 3b bd 13 29 61 3d 01 18 cc bd 11 da 0c 3e
       -0.04588185 0.054970812 -0.09965516 0.1375506
000020 c9 27 5d 3e 78 d4 20 be 23 fd 57 3e 3d 7f 41 3d
       0.21597208 -0.1570605 0.21092658 0.047240485
000030 70 ad 38 3e 72 9d 36 3d 97 18 02 3e 6c e5 8c bc
       0.18034911 0.044583745 0.12704693 -0.01719924
000040 5d fc 44 3e 72 c2 15 3d 08 0a e1 bd d1 dd 60 3d
       0.19236894 0.03656239 -0.109882414 0.05489904
000050 8e 90 df bd 4b 51 cf bc 3f 22 ad bd 2b c7 21 3e
       -0.109162435 -0.025307318 -0.084537975 0.15798633
000060 89 02 35 be 19 19 f0 bd 70 64 65 bd 04 36 14 be
       -0.17676748 -0.11723537 -0.056003988 -0.1447373
000070 d1 3a 03 3d 8d b6 73 be 4b 04 58 3e ca 8a 3f be
       0.032038514 -0.23800106 0.21095388 -0.18705288
000080 c6 27 3d 3e f1 4b 3d 3d 67 b1 a6 bd d0 15 09 3e
       0.18472204 0.046215 -0.081393056 0.13387227
000090 1a f8 db 3c cc 18 33 3e c1 94 af 3c 4d c5 9a bd
       0.026851702 0.17489928 0.021433236 -0.075571634
0000a0 65 5c 84 3d cf 0b a6 bd 15 7e c4 3d 6d 40 52 3e
       0.06462935 -0.08107721 0.09594361 0.20532389
0000b0 79 7b 07 3e fb dd f5 bd d5 69 09 3e 9b 9a d0 3c
       0.13230695 -0.1200523 0.13419278 0.025464347
0000c0 95 f5 e1 3d 75 26 1c be 57 7d 72 be c9 c8 bb bd
       0.11033169 -0.15249045 -0.23680626 -0.09169156
0000d0 15 10 49 be cc 33 44 3e e4 91 83 3d 05 32 b3 3d
       -0.19635041 0.19160384 0.06424311 0.08749775
0000e0 0e ea 8d 3d 79 9b a1 bb 36 06 42 3e a8 5d 3f be
       0.06929408 -0.004931864 0.18947682 -0.18688071
0000f0 14 4f 28 3c 5f a0 29 be 7c 9a 99 3d 50 03 cb bd
       0.01027276 -0.16565083 0.07500169 -0.09912741
000100 f2 ce a2 3d 0b c4 77 bd 75 92 46 3e ec 53 11 be
       0.07949628 -0.060489696 0.19391806 -0.1419217
000110 01 38 15 be 8d 79 0f be f7 d3 58 3e 3a 11 9d 3d
       -0.14572145 -0.14011212 0.21174608 0.07669301
000120 ed a6 60 3e 50 44 4d be a4 91 77 be ec 6e 41 be
       0.21938677 -0.2004559 -0.24176651 -0.1888997
000130 e2 4d 1a be cf 3b c5 3d 1c f3 88 3d 2c 15 40 3e
       -0.15068772 0.09630548 0.066869944 0.18758076
000140 1e e1 ed bd fe 5e 28 be f4 5b 05 3e 7e 0e d2 bd
       -0.11615203 -0.16442487 0.13023359 -0.102566704
000150 39 04 0a 3e 55 98 47 bd 9e 5b 05 3e 00 f5 3e be
       0.13478173 -0.04872926 0.1302323 -0.18648148
000160 6c b1 03 be ed 92 88 3d a7 bb 89 3d ea 57 1d bd
       -0.1286065 0.06668649 0.06725245 -0.03841392
000170 c7 77 19 3e fc 89 29 3e 3d 0c 38 be 20 ff da bd
       0.14987098 0.16556543 -0.17973419 -0.106931925
000180 5f cb 61 3e 10 16 79 bd 07 8f a8 bd 22 c5 52 be
       0.22050236 -0.060812056 -0.08230405 -0.20583013
000190 e3 88 0d be 54 79 a6 3d c1 6b 1a bc 5b 77 2d be
       -0.1382175 0.0812861 -0.009425105 -0.16940062
0001a0 9d 45 76 3c fd 0e 20 be 1c fb 35 be 6d a2 ea bd
       0.015031246 -0.15630718 -0.17771572 -0.114567615
0001b0 a3 8d 62 be 71 ae 2e be 90 a5 65 3e b2 96 5c 3d
       -0.22124343 -0.17058732 0.22426438 0.05385465
0001c0 c6 8b 94 3d 6e 00 6d be d0 3a 26 be 7d 6e c8 bd
       0.07253222 -0.23144695 -0.16233373 -0.09786699
0001d0 95 87 db 3c 21 8e 6a be 60 ba df bd 7e 4c 26 be
       0.026798049 -0.2290578 -0.1092422 -0.16240117
0001e0 dc d1 95 bc 05 fb d1 bd 22 62 59 bc a5 81 2b be
       -0.018288545 -0.10252956 -0.013268026 -0.16748674
0001f0 0b c5 3c be ac 58 1f be 49 e7 8a bd 85 f0 2a be
       -0.18434541 -0.1556117 -0.067823954 -0.16693313
000200 21 1f 55 3e 22 dd 52 bd 17 98 3e 3e 90 6a af 3d
       0.20812656 -0.05148042 0.18612705 0.08565247
000210 fd 4f 46 be ca cd 35 3e 16 dc 98 bd 1a 98 92 bd
       -0.1936645 0.17754284 -0.07463853 -0.07157917
000220 0f b5 54 be 12 9f 5f be bf f1 a2 3d 89 4c 6e bd
       -0.20772193 -0.21838024 0.07956266 -0.05817846
000230 b3 05 b7 3d 54 62 44 be e3 b9 44 3e a4 3f 25 be
       0.08936634 -0.19178134 0.19211535 -0.16137558
000240 37 16 f5 bc 45 4a 8a 3d 8d 75 fc 3d 2a 74 55 3e
       -0.02991782 0.06752447 0.123271085 0.20845094
000250 07 0a 6c 3e 6f c8 2a be d4 48 93 3d d6 27 b9 bd
       0.230507 -0.16678022 0.07191625 -0.09040801
000260 48 c4 18 bc c8 db 1e be 65 c8 6d 3e e0 9e 1e be
       -0.009324141 -0.15513527 0.23220976 -0.15490294
000270 5b 15 0c 3e 41 ba cf 3d cd 3a c6 3d b6 6c e8 bd
       0.13680021 0.10142947 0.09679184 -0.1134886
000280 40 8e 68 3e f1 7b 6c 3d 84 3d c2 3c 49 c0 5f be
       0.22710514 0.057735387 0.023710974 -0.21850695
000290 0f c9 cc 3d 65 27 36 bd 22 06 d8 bd 7d 73 3a 3e
       0.099992864 -0.044471163 -0.10548045 0.18208118
0002a0 1c 1d 3a 3d 0a 6b 0d be 6e 0a f8 bd de fa f1 bc
       0.045437917 -0.13810363 -0.12111364 -0.029538568
0002b0 95 54 06 3e 0d 40 98 bd 66 c7 11 be c2 67 b2 bd
       0.13118203 -0.07434092 -0.1423622 -0.087111965
0002c0 bd cb 43 be 39 7f 9d 3d d7 38 35 3e 7e 0a 73 be
       -0.19120689 0.076902814 0.17697464 -0.23734471
0002d0 ef a9 80 3d 09 0c 13 3e a2 58 5d 3d ec 7d 93 bd
       0.06282412 0.1436006 0.054039605 -0.07201752
0002e0 69 62 02 3e 44 b2 12 3e 45 13 d8 3d 45 4a 0e bd
       0.12732853 0.14325815 0.1055055 -0.034738798
0002f0 d3 41 59 bd d3 0f 40 3d b1 46 12 bd 79 95 54 bd
       -0.05304129 0.04689009 -0.035711948 -0.05190036
000300 95 2b 23 3e f8 5a 59 3e 20 8f 15 bc cd 1e 27 bd
       0.15934594 0.21226108 -0.009128362 -0.04080086
000310 57 f8 d2 3c 9e 09 16 bb cd 0d 74 3d 63 c8 98 3d
       0.025753183 -0.0022893916 0.059583474 0.07460096
000320 82 80 5d be dd 9b b9 bd ad f1 3e 3e c4 8e c8 3d
       -0.21631053 -0.09062932 0.1864688 0.097928554
000330 eb e2 1f bc c5 b8 0e be b2 79 1d be b7 9c 4f be
       -0.009758691 -0.13937671 -0.15378454 -0.20274626
000340 2e 83 b4 bd 57 fa ad 3d 4a 41 19 3e 84 28 d0 3d
       -0.08814083 0.08495014 0.14966312 0.10163978
000350 f5 1d 58 be cb 09 0f be 0f c6 00 bd 5a 6c 69 3e
       -0.21105178 -0.1396858 -0.031438883 0.22795239
000360 a3 d1 b3 3c 10 b2 9b bd 0f da b9 3d 89 a8 ad bd
       0.021950549 -0.07602322 0.090747945 -0.08479411
000370 15 9c fe bd 23 ca 20 3e cb b7 f8 bd 92 2a 6d bd
       -0.12432114 0.15702109 -0.12144431 -0.057901926
000380 3e dc 53 be 14 65 10 3e 23 d4 52 3e c0 73 90 3d
       -0.20689484 0.14101058 0.20588736 0.070533276
000390 c1 63 32 be 59 ef 54 be d9 33 42 be b3 f6 32 3e
       -0.17420866 -0.20794429 -0.18965091 0.17476921
0003a0 6e e0 c6 3d a7 83 47 3e eb 1c ea 3d 74 94 21 3d
       0.09710775 0.19483815 0.11431297 0.039448217
0003b0 39 21 e5 bb 20 25 40 be ec e1 4f be 2e d8 76 be
       -0.006992486 -0.18764162 -0.20301026 -0.24105904
0003c0 52 ac bf 3d b6 f0 03 be 0d 06 5e bd 7e 61 21 be
       0.09359039 -0.12884793 -0.05420499 -0.15759847
0003d0 90 ac 47 bd c1 7c 3f be 52 3b 26 be ae 24 82 3d
       -0.048748553 -0.18699934 -0.16233566 0.06354652
0003e0 82 74 ab bd 4b 94 13 3e 1c 9b c8 bd 24 3c 36 be
       -0.083718315 0.14412038 -0.0979521 -0.1779638
0003f0 6e 27 f5 bc ec f8 cb bd ba 68 85 bd 40 ef 58 be
       -0.029926028 -0.099595875 -0.06514116 -0.21185017

0.bias f4 [32]
000000 55 8e 72 bd 2c dc e1 3d d2 30 06 be d6 7e c7 bd
       -0.05921777 0.110283226 -0.13104561 -0.09740989
000010 49 ab 0d 3e 06 f8 60 be bd 0b 4c 3d 98 b8 49 3e
       0.13834871 -0.21969613 0.049815882 0.19699323
000020 d5 ba 15 3d 6a 20 a6 3d 0d eb ee bd 83 b9 4b bb
       0.03655513 0.08111651 -0.11665926 -0.0031085915
000030 a4 00 2a bc f2 10 8f 3d b1 ba 96 3d 1e 99 6c 3e
       -0.010376129 0.06985654 0.07359827 0.23105285
000040 aa f5 4d be ce f8 cc 3c 4e 05 d3 bd 79 84 3d be
       -0.20113245 0.025020983 -0.10303746 -0.18507566
000050 98 80 1f bd 5f 37 59 be 21 8c 25 3e 1c 6a 07 3d
       -0.038940996 -0.21212529 0.16166736 0.03306018
000060 4c a8 cd bd 1a f3 ff 3d fc d6 64 be ae 65 c8 bd
       -0.10041866 0.1249754 -0.22347635 -0.09785019
000070 df 1e 49 bd 78 96 53 be 86 5f 08 be ee ef b0 bc
       -0.049101707 -0.20662868 -0.1331769 -0.021598782

3.weight f4 [64, 32]
000000 4b 78 19 3e 0a 12 23 3e 2e 11 f5 3d 9c ff d1 bd
       0.14987294 0.1592485 0.119661674 -0.10253832
000010 da 57 f9 bd a5 4a 12 3e dc ce 3f 3d d5 7c d7 bb
       -0.121749595 0.14286287 0.046828136 -0.0065761604
000020 46 fd c9 3c a3 b8 1a be 7b 70 38 bd 3c 96 28 3e
       0.024656903 -0.15109496 -0.045029145 0.1646356
000030 96 45 ff bc db 04 8b bc 7a ea 1b be 8a 02 ec bd
       -0.03116111 -0.016970089 -0.15226164 -0.11523922
000040 27 33 d1 bb 71 bb c8 bd bf d6 03 bd 26 69 88 3d
       -0.0063842717 -0.098013766 -0.03218722 0.066606805
000050 bc 8f 39 be 22 66 6a 3d f3 69 e8 bd ec b9 a3 bd
       -0.18121237 0.057226308 -0.11348333 -0.07994446
000060 f5 3e b3 3d b6 5e 01 3e 08 fe 4e bd 3f 48 6f bd
       0.087522425 0.12633786 -0.05053523 -0.05841851
000070 56 18 24 be 2e 87 b4 bd b6 f9 14 be 3e 45 47 bd
       -0.16024908 -0.08814846 -0.14548382 -0.04865002
000080 b4 a7 54 3d 86 e8 2b be 47 b6 1e 3e 56 d3 e6 3d
       0.051917747 -0.1678792 0.15499221 0.11270778
000090 e1 1d 30 be 05 f5 c1 bd 52 f1 32 3d 30 35 45 bd
       -0.17198898 -0.09470562 0.043687172 -0.048146427
0000a0 7d 5c a2 bc d5 8e b2 bd ef 97 1a 3e 0d 0a c8 bd
       -0.019819492 -0.08718649 0.1509702 -0.09767542
0000b0 c1 c3 15 3e 2f da 28 3b 9b 66 fc 3c 1d 91 01 3e
       0.14625455 0.0025764813 0.030810645 0.12653013
0000c0 13 c4 04 bd bd a8 ce bd 56 76 26 bd 6c b6 0f 3e
       -0.032413553 -0.10090778 -0.040640198 0.14034432
0000d0 a9 a7 07 be e9 81 13 3d e2 d0 38 be 7d 05 c8 3d
       -0.13247551 0.036012564 -0.18048432 0.09766672
0000e0 59 72 aa 3d ac 72 15 bb 15 24 9b 3d c1 9a e1 3b
       0.08322591 -0.0022803945 0.075752415 0.006884903
0000f0 f7 af cd 3d 7d 92 11 be 9c 3c b1 bc d2 bd 98 3d
       0.10043328 -0.14216037 -0.021635346 0.0745808
000100 4d d5 47 3e ef 94 a2 3d 38 c1 04 be db 77 13 3e
       0.19514962 0.07938563 -0.12964332 0.1440119
000110 1e 11 44 bd 2b 11 3d bd 80 a6 35 be 2e b2 10 bd
       -0.047867887 -0.04615895 -0.17739296 -0.035326175
000120 eb d8 09 3e 02 a4 d9 3c 18 d5 a7 bd e6 7d 4e 3d
       0.13461654 0.026567463 -0.08194941 0.050413035
000130 51 98 2d bd a4 b6 1f 3e ce e7 15 be 40 c8 97 bd
       -0.04238159 0.15597016 -0.14639208 -0.074112415
000140 4f c3 26 be 53 04 62 bd fa e3 28 3d ba 5f 32 3e
       -0.16285442 -0.055179905 0.04123304 0.1741933
000150 a0 cf d1 3c 00 77 36 3e 7b 4e 33 3d da df e4 3d
       0.025611699 0.17818832 0.043776017 0.11175509
000160 73 de 2a 3e 22 4c 08 3e 77 5a c5 bd ba 75 35 3e
       0.1668642 0.13310292 -0.096363954 0.1772069
000170 db a7 dc 3d 41 80 a3 bd 24 68 94 bd a6 42 09 be
       0.107742034 -0.07983447 -0.07246426 -0.1340433
000180 30 fe 03 3d 89 bd 08 be 12 ca 9d 3d 07 5e 73 3d
       0.032224834 -0.13353552 0.077045575 0.059415843
000190 28 e8 16 be f9 44 5e 3d f3 c7 0c 3b b6 ce c1 3d
       -0.14736998 0.054264996 0.0021481484 0.09463255
0001a0 fe 50 c4 3d 42 23 27 be 45 74 14 3e ee 81 1d 3e
       0.095857605 -0.16322044 0.14497478 0.15381595
0001b0 ff 2e 85 3d 3e 5f 1b be fc e7 8d bd 38 c1 0e bd
       0.065031044 -0.15173051 -0.06929013 -0.034852237
0001c0 1d 08 3c bd 2c b1 b6 3d 7f ec 9e 3d 3c 01 0f 3e
       -0.045906175 0.089205116 0.07759952 0.13965315
0001d0 94 50 71 bd e1 cc 7d 3d 4e 89 8b 3d c3 64 14 be
       -0.058914736 0.061962966 0.06813298 -0.14491563
0001e0 74 c2 3c be 27 aa a5 bd 74 20 ef 3d bb 24 35 be
       -0.18433553 -0.080890946 0.11676112 -0.17689793
0001f0 f2 ac 17 be f0 a0 c8 3d de d0 b2 3d 65 1e 1e 3e
       -0.14812067 0.097963214 0.087312445 0.15441282
000200 6d fe fe bd a7 7f d8 bd 4a 16 d3 3d e9 b5 34 3e
       -0.124508716 -0.10571223 0.10306986 0.17647518
000210 01 a0 fe 3d 4f 52 52 3d 8d 4e b1 3d a4 53 43 3e
       0.12432862 0.051348027 0.086575605 0.19074875
000220 d7 89 c6 bd 85 6f 6b bd a4 11 05 3e 7a d6 d4 bd
       -0.096942596 -0.0574794 0.1299501 -0.10392471
000230 13 96 c2 bd 54 5e 1a 3e 2f 07 a6 3d fd aa ac 3d
       -0.09501281 0.15075046 0.08106839 0.08431051
000240 57 54 75 bd bc 66 05 3c 4e eb 3c 3e 92 3e ac bd
       -0.059894886 0.00814217 0.18449137 -0.08410372
000250 b0 d9 d8 3c 4d fa c3 3d e3 7d d2 bd 15 44 3b 3e
       0.026470989 0.095692255 -0.10277917 0.1828769
000260 75 94 b8 bd 5a c8 9f bc 5a 34 09 bd 75 38 d8 bd
       -0.09012691 -0.019504715 -0.033497192 -0.10557643
000270 32 18 1f be fc cd dc 3d 53 55 42 3d e8 9d 12 be
       -0.15536574 0.10781476 0.047444653 -0.14318049
000280 64 b7 02 be a1 8c 37 3e af 5d 84 3d 6d d6 a4 3d
       -0.1276527 0.1792474 0.06463181 0.08048711
000290 95 22 cc bd 20 b1 8a bd 57 5f d8 bb ad b6 d1 bc
       -0.099675335 -0.06772065 -0.0066031623 -0.025599802
0002a0 97 4a da bd f8 e7 74 3c 00 c0 a0 3a 87 cb d1 bc
       -0.10658758 0.014947884 0.0012264252 -0.025609745
0002b0 ce 04 e4 3b 67 88 80 bd 37 7a 81 3d a1 fd aa 3d
       0.0069585806 -0.06276017 0.06322139 0.08349157
0002c0 35 8c c2 bd c7 ac 36 be 9d 08 d8 3d c3 b0 6a 3d
       -0.094993986 -0.17839347 0.10548518 0.05729748
0002d0 e1 60 a8 bd 75 58 33 3e 33 5d af bd a1 28 e5 3d
       -0.08221603 0.17514212 -0.08562698 0.1118939
0002e0 84 cf 8c 3d ef 28 0b be 49 47 e4 3d 12 c3 31 be
       0.06875518 -0.13589834 0.11146409 -0.1735957
0002f0 96 57 c9 bd 14 2c 10 bd a1 c9 fd bd 78 b9 2c 3e
       -0.09831159 -0.035198286 -0.12391973 0.16867626
000300 96 81 ad bc b5 86 6c 3d a2 93 23 be f1 f6 ce 3d
       -0.021179955 0.057745654 -0.15974286 0.10105694
000310 85 06 8f bd e4 d1 18 be c7 ed 30 3c 4f 32 8c 3d
       -0.069836654 -0.14923817 0.010798878 0.06845533
000320 0c 1b 23 3e 0f bd fe bd ac f2 99 bd 01 f2 b1 3c
       0.15928286 -0.12438404 -0.07516989 0.021721842
000330 c9 79 28 3d 84 b9 5f 3d 12 cc ca 3d ee 18 5f bd
       0.04113177 0.05462028 0.099022046 -0.054467134
000340 57 82 b3 3d 27 3f 13 3e 8d 16 77 bd 8a d4 05 3e
       0.08765095 0.1437956 -0.06032424 0.13069358
000350 10 85 a0 3d 87 f6 1a 3e 96 94 f0 bd 4f ef cd bd
       0.0783788 0.15133105 -0.117470905 -0.1005541
000360 24 59 2d bd e1 23 3c bb 28 ad ca 3d f5 cd ac bd
       -0.04232134 -0.002870791 0.09896308 -0.08437721
000370 45 69 9c 3d 11 3e 82 bd 47 d2 f3 3d 2f 29 d1 bc
       0.07637266 -0.063594945 0.119053416 -0.025532333
000380 b6 ae 2c be 2e 6c ce bd b2 e4 0a be 26 3b 9c 3d
       -0.16863522 -0.100792274 -0.13563803 0.07628469
000390 eb cf fb bd 42 4f 8d bc e1 99 0a 3d 58 8e c0 bd
       -0.122955166 -0.017249707 0.033838157 -0.0940215
0003a0 3d b4 15 3d 68 f3 33 be 50 2b 12 be 85 1a 2c be
       0.03654884 -0.17573321 -0.14274335 -0.16806991
0003b0 4c 24 5e bd ce af 8d bd 47 f7 36 3c 21 ea 12 bd
       -0.054233834 -0.06918298 0.011167354 -0.035867814
0003c0 12 e3 9a 3d 88 8b 17 3e 01 47 6f 3d 47 e7 a8 bd
       0.075628415 0.1479932 0.058417324 -0.08247238
0003d0 ce ea 33 be f8 7d 4a 3d 13 0e bb bd d9 ba a1 3d
       -0.1757004 0.04943654 -0.09133544 0.078969665
0003e0 d0 1c d9 3d 80 ca 85 3d c0 7e 25 3e 76 ed 1d 3e
       0.10601199 0.065327644 0.16161633 0.15422615
0003f0 2f 96 0f 3d 00 da 12 be 7e 2d 13 3e 22 29 be bd
       0.035055336 -0.14340973 0.14372823 -0.09285189

3.bias f4 [64]
000000 14 83 57 3d e3 f1 e4 bd 5a a8 e3 3c 23 68 3e bd
       0.05261524 -0.11178949 0.027790237 -0.04648603
000010 e9 80 b9 bd 8e e1 75 bd f7 d4 15 be 69 17 df bd
       -0.09057791 -0.06002956 -0.14632021 -0.10893137
000020 d9 4b 8b bc 9c a6 06 be fd 7b 1a be 23 22 fe 3d
       -0.01700394 -0.13149494 -0.1508636 0.12408855
000030 0e 6e 9f 3b db 4c 74 bd aa 7c 9a bc 2c 5a 0f 3e
       0.0048654145 -0.059643608 -0.018858273 0.13999242
000040 b3 cc 20 be 2f 03 cc bd e7 7f 06 be 3a 63 5f bb
       -0.15703087 -0.09961545 -0.13134728 -0.0034086243
000050 06 ca 65 3a fb 25 ec bd 7d 19 db 3d 5b 1d ef bd
       0.00087657606 -0.11530682 0.10698221 -0.11675521
000060 e7 49 2b 3e 82 1e e2 bd 19 25 91 bc b6 64 df 3c
       0.1672741 -0.11040975 -0.017717885 0.027269702
000070 f4 06 a4 bd 27 37 24 3e 0e 3b de bd ad 91 f6 ba
       -0.08009139 0.16036664 -0.108511075 -0.0018811725
000080 85 9a 07 be 18 a5 2f 3d 5c 17 12 3e 30 af 2c 3e
       -0.13242538 0.042882055 0.14266723 0.16863704
000090 c8 a1 66 3c 7c 3a b6 bd 79 bd 2d 3e fa 4d ce 3c
       0.014076658 -0.08897874 0.1696681 0.025183666
0000a0 4e aa 13 3e 77 5f e0 bd 2e ef 70 bd d2 df 1a be
       0.14420435 -0.109557085 -0.05882185 -0.15124443
0000b0 58 02 2b 3e 71 41 0e 3d 57 9b f4 bd 83 5d 59 3c
       0.16700113 0.03473038 -0.11943691 0.013266924
0000c0 3d 3b 98 bd cb bf a0 bb 68 07 3e 3d c2 c0 a4 bd
       -0.07433174 -0.004905676 0.046393782 -0.08044578
0000d0 99 e5 83 3c 26 c1 d3 bd 88 d6 59 3d 4a 06 36 be
       0.016100692 -0.103395745 0.05318311 -0.17775837
0000e0 d1 a6 f3 3c c1 c5 2e 3e 45 1f 17 3e 52 f5 4e 3d
       0.02974263 0.17067625 0.14758022 0.050526924
0000f0 79 90 05 3e 25 7a 39 3e 16 0e 1c 3d ce 9e 93 3d
       0.13043393 0.18113 0.03809937 0.07208024

6.weight f4 [1, 64]
000000 9a f5 31 3c bb 9e e3 3d 0f 01 fc 3d 2a f9 53 bd
       0.010861779 0.1111426 0.123048894 -0.051751293
000010 34 ae e6 bc b0 6e 72 bd c4 0f 5d 3d e5 5e de bd
       -0.028159238 -0.05918759 0.053970113 -0.108579434
000020 f0 fd 10 3d e9 db 6e bd be c7 4a 3d 90 87 e0 3c
       0.035398424 -0.05831519 0.049506895 0.027408391
000030 88 36 61 bd 34 05 a3 3d c3 14 03 3d fb 88 03 be
       -0.054983646 0.07959977 0.03200222 -0.12845223
000040 f0 a9 eb 3d 23 60 d1 3d d9 51 9a 3d 19 91 ac bc
       0.115070224 0.10223415 0.075351425 -0.021065282
000050 88 fc 6d 3d 0a 57 bf bd da 49 ef bc a5 9e 99 3d
       0.05810216 -0.09342773 -0.02921002 0.07500962
000060 fe 4e 78 3d 71 2f 81 3d 4c 64 03 be 29 30 cf 3d
       0.060622208 0.06307877 -0.12831229 0.10116608
000070 90 1f 55 bd 48 38 c8 3d dd 4b e8 3d 61 99 43 3d
       -0.052032053 0.0977636 0.11342595 0.047753695
000080 7d cd fa 3d b5 cf 81 3d e6 2a 5d 3d ce 24 68 bd
       0.12246225 0.06338445 0.05399599 -0.056675725
000090 5f 8d db 3d 91 81 ff 3c 41 49 a4 3d 8c bc 2d bd
       0.10720324 0.031189712 0.080217846 -0.04241614
0000a0 18 9d e3 3d 36 bb c5 3d e3 e0 f6 bd 68 a9 c8 3d
       0.11113948 0.09654848 -0.120546125 0.09797937
0000b0 e4 9d c6 bd 4a d0 ba bd 7a ea e8 bd ba 25 12 3d
       -0.09698084 -0.09121759 -0.11372848 0.03568051
0000c0 92 33 d9 bd 2d 5e 18 bd 87 06 6c bd 61 a8 19 3d
       -0.106055394 -0.037199188 -0.057623412 0.037514094
0000d0 c7 64 dc bd 59 ae 81 bd 5c 76 7d 3c 48 c1 6c 3b
       -0.10761409 -0.06332082 0.015470114 0.0036125947
0000e0 32 cf 74 bd b9 95 de 3c d0 05 7b bd 41 94 c8 bd
       -0.05976791 0.027171003 -0.06128484 -0.09793902
0000f0 e4 de 77 bc 78 5b a8 bd 7e eb 6c 3d e3 36 dc bd
       -0.015128825 -0.08220571 0.05784177 -0.10752656
