Deployment/nn_model_diabetes_cl.pth (torch, 13962 bytes, 5 tensors)

0.weight f4 [32, 18]
0	0x3e3ac259	0.182382
1	0x3ebd2bfd	0.36947623
2	0xbe2b12f5	-0.1670645
3	0x3e387a57	0.18015419
4	0xbb701dfb	-0.0036638964
5	0xbd72416b	-0.05914442
6	0xbcc674e5	-0.024225662
7	0x3d556ba5	0.05210461
8	0x3e8f9452	0.28042847
9	0xbdf4db25	-0.11955861
10	0x3e9d7661	0.30754378
11	0xbd5cea4c	-0.05393438
12	0x3e08860e	0.13332388
13	0x3cfaf255	0.030633131
14	0x3d5f2d99	0.054486845
15	0x3dfce3cb	0.123481356
16	0x3da4a014	0.08038345
17	0xbd969256	-0.0735213
18	0xbe4cf3ea	-0.20014921
19	0x3c832d6b	0.016012868
20	0xbd975d43	-0.07390835
21	0x3d9c43ad	0.07630096
22	0x3ca7642d	0.02043351
23	0x3d2f8066	0.04284706
24	0xbe728f46	-0.23687467
25	0xbe73eb0c	-0.23820132
26	0xbbe93f5b	-0.0071181483
27	0xbe5d51fc	-0.21613306
28	0x3d3a1aa6	0.04543557
29	0xbec4a657	-0.38408157
30	0x3e6a70f2	0.22894648
31	0xbe769db6	-0.240836
32	0x3e696d61	0.22795631
33	0xbcb67fd2	-0.022277746
34	0xbde67bb0	-0.1125406
35	0x3e82cd30	0.2554717
36	0xbca18dc6	-0.019720923
37	0x3d9ddc8f	0.07708084
38	0x3e194239	0.14966668
39	0xbe96de11	-0.29466298
40	0x3e600511	0.21876933
41	0x3c8ee3b2	0.017442558
42	0x3e3d8bff	0.18510436
43	0x3dc15205	0.09439472
44	0x3e64c7d1	0.22341849
45	0xbdaf065e	-0.08546136
46	0x3e22421b	0.1584553
47	0xbd370e74	-0.044691518
48	0x3d8444e7	0.064584546
49	0xbe71f198	-0.23627317
50	0xbedc22c6	-0.4299528
51	0x3ddc0538	0.10743183
52	0xbe5ec8c6	-0.21756276
53	0x3d8891a1	0.066684015
54	0x3d8d3776	0.06895344
55	0x3e28527e	0.16437718
56	0x3d870853	0.065933846
57	0xbc94089c	-0.018070512
58	0x3e8b4b01	0.2720566
59	0xbea50df3	-0.32237205
60	0xbe095a04	-0.13413244
61	0xbdf1c661	-0.11805416
62	0x3e058184	0.13037688
63	0xbdec90da	-0.11551066
64	0x3e3b69bd	0.18302055
65	0xbd94aecd	-0.07259903
66	0x3e8312b0	0.25600195
67	0xbe74569a	-0.23861161
68	0xbe6cb8b5	-0.23117335
69	0xbe10bf45	-0.14135464
70	0x3ead4d86	0.33848208
71	0x3e8e2c9c	0.2776841
72	0x3dd92b7b	0.10603996
73	0xbe41ea29	-0.18936981
74	0xbea69217	-0.32533333
75	0xbe03d58b	-0.12874429
76	0xbde6961c	-0.112591
77	0xbbebcd75	-0.0071961232
78	0xbe55a639	-0.2086419
79	0x3e990f10	0.29894304
80	0xbdf6458d	-0.120249845
81	0xbe4876cf	-0.19576572
82	0x3e151443	0.1455851
83	0xbd9883b1	-0.07446993
84	0x3da3af36	0.07992403
85	0xbe27ad96	-0.16374812
86	0x3e242dd5	0.16033109
87	0xbe8ef042	-0.27917677
88	0xbd15bf17	-0.03655919
89	0x3dca629d	0.0988209
90	0x3da10a52	0.078632966
91	0x3d9d9ab1	0.07695521
92	0x3d706e1e	0.058698766
93	0x3ccd5182	0.02506328
94	0xbef6dfa7	-0.48217508
95	0xba082422	-0.00051933725
96	0x3e872022	0.26391703
97	0xbd16f1e1	-0.036851767
98	0xbe9b63b6	-0.3034951
99	0xbd9717f5	-0.07377616
100	0xbeeb953b	-0.4601229
101	0x3e0ea401	0.1392975
102	0xbd495a88	-0.049158603
103	0xbe37373f	-0.17892168
104	0xbd4dccc3	-0.050244104
105	0xbdfa8a43	-0.122334026
106	0xbde596a5	-0.11210374
107	0xbe30d401	-0.17268373
108	0xbe82e9ed	-0.25569096
109	0xbe80dcae	-0.25168365
110	0x3e440d5b	0.1914572
111	0x3d4e48c1	0.050362352
112	0x3e7ea5e2	0.24867967
113	0xbe5a0980	-0.21292686
114	0xbe526fa5	-0.20550402
115	0xbe8f4ce9	-0.27988365
116	0x3dfc8af5	0.123311915
117	0xbe341c12	-0.17588833
118	0xbd3385ba	-0.043828703
119	0xbe9db71b	-0.3080376
120	0x3c2d7f24	0.010589395
121	0xbd273ae3	-0.040827643
122	0xbc9e7ddf	-0.01934713
123	0xbe013fff	-0.12622069
124	0xbe450209	-0.19239058
125	0xbe3b5b9f	-0.1829667
126	0xbd6ba4a1	-0.05753005
127	0xbe8fc495	-0.28079668
128	0x3e4ad5ed	0.19808169
129	0x3df8656e	0.12128721
130	0x3e4229a0	0.18961191
131	0x3e13888b	0.14407556
132	0xbeba5540	-0.36393166
133	0x3e5d6eb3	0.2162426
134	0xbdf26c26	-0.11837034
135	0xbd18274f	-0.037146863
136	0xbe36fbcf	-0.17869495
137	0xbe0b2201	-0.1358719
138	0x3e05ad87	0.13054477
139	0xbe115511	-0.14192607
140	0x3e4ae676	0.19814476
141	0xbe82d48d	-0.25552788
142	0x3e701cde	0.23448512
143	0xbe05e133	-0.13074188
144	0x3c506e57	0.01272162
145	0x3dd6e492	0.10492815
146	0x3d2e7f37	0.04260179
147	0x3e2ef067	0.17083894
148	0x3ea1a232	0.31569058
149	0xbe30f969	-0.17282642
150	0x3ddffd21	0.109369524
151	0xbd03c9d2	-0.032174893
152	0x3d9a6b14	0.07539955
153	0xbe21c6b0	-0.1579845
154	0x3ed1d225	0.4098064
155	0xbd8fae25	-0.07015637
156	0x3e13a04f	0.14416622
157	0x3e09967f	0.13436316
158	0x3d262ba5	0.040568966
159	0xbcbefda7	-0.02331431
160	0x3d455150	0.04817325
161	0x3db73688	0.08945948
162	0x3ce6c9e3	0.028172439
163	0xbeaa127e	-0.33217233
164	0x3e6a5a10	0.22885919
165	0xbe62bf25	-0.22143228
166	0x3dfc08ca	0.12306364
167	0x3e5bad01	0.21452715
168	0xbc190b15	-0.009341021
169	0xbeaeee3c	-0.34166133
170	0xbcabf2ec	-0.020989858
171	0xbc89304a	-0.016746659
172	0x3e557ca9	0.20848335
173	0xbe4b3846	-0.19845685
174	0xbdaeff11	-0.08544744
175	0xbdfe32f6	-0.12412064
176	0xbeb7698e	-0.3582272
177	0x3a97f18a	0.001159237
178	0x3e405ef4	0.18786222
179	0xbe2985b4	-0.1655491
180	0x3e02c268	0.12769473
181	0x3e757c2c	0.23973149
182	0xbd7295db	-0.059224945
183	0xbd3354c0	-0.043781996
184	0x3e192314	0.14954787
185	0x3e821156	0.2540385
186	0x3dd15b69	0.10222513
187	0xbdc60792	-0.09669413
188	0xbc989a15	-0.01862816
189	0x3e0764db	0.13222067
190	0x3c0748a1	0.008257062
191	0xbd7f3efe	-0.062315933
192	0x3e42bce5	0.1901737
193	0x3e80fc29	0.25192383
194	0x3d67a04d	0.05654936
195	0x3c933cab	0.017973265
196	0xbc3d56a9	-0.011556306
197	0xbddfc364	-0.1092594
198	0xbccbf361	-0.024896326
199	0x3d84bbae	0.064811096
200	0xbe986aca	-0.29768974
201	0x3b134903	0.0022473938
202	0x3e03317a	0.12811843
203	0x3dc515ce	0.096232995
204	0xbe7d811f	-0.24756287
205	0x3d047655	0.032339413
206	0xbe5f58e8	-0.21811259
207	0xbe5660d1	-0.2093537
208	0xbdbdfeab	-0.0927709
209	0x3e4e9c93	0.20176916
210	0x3df87a54	0.12132707
211	0xbe0a063e	-0.13478944
212	0xbde324a5	-0.11090974
213	0xbe342bfa	-0.175949
214	0x3d49031e	0.04907524
215	0x3e9dccc9	0.308203
216	0x3c29d6b3	0.01036613
217	0xbe0fbaaa	-0.1403605
218	0x3e2afdea	0.16698423
219	0xbdf8aeb7	-0.12142699
220	0xbeaccb67	-0.33748934
221	0x3e508699	0.20363845
222	0xbe2f9ea0	-0.17150354
223	0xbdb117bc	-0.08647105
224	0xbecf08c9	-0.4043639
225	0x3df7ef4a	0.12106188
226	0xbd1ccd52	-0.038281746
227	0x3d0ff642	0.03514696
228	0xbe76ce0a	-0.24102035
229	0xbdc4df7f	-0.09612941
230	0xbe348895	-0.17630227
231	0x3d9c8ca3	0.07644012
232	0xbdb7591b	-0.089525424
233	0x3dbac1f5	0.091190256
234	0x3c887bd0	0.0166606
235	0xbe131235	-0.14362414
236	0x3d48a5ac	0.048986122
237	0xbe885b6c	-0.2663225
238	0x3905c628	0.00012757687
239	0xbe470b7e	-0.19437978
240	0xbd1832fc	-0.037157997
241	0xbea3d168	-0.31995702
242	0x3c860a79	0.016362416
243	0xbe789a38	-0.2427758
244	0x3c6cc7b9	0.0144519145
245	0xbea0405c	-0.31299102
246	0xbe4675df	-0.19380902
247	0xbcb01e96	-0.02149896
248	0xbe0aee8c	-0.13567561
249	0xbd8ceebe	-0.06881474
250	0xbe851c86	-0.25998324
251	0xbd885752	-0.0665728
252	0xbe215c39	-0.15757836
253	0xbe45dc4b	-0.19322316
254	0x3d394ad4	0.045237377
255	0xbe9ce0f3	-0.30640373

0.bias f4 [32]
0	0x3bf21bb5	0.007388557
1	0xbc23652d	-0.009972853
2	0xbebfc7cc	-0.3745712
3	0x3dfb47c6	0.12269549
4	0x3dddadbb	0.10824152
5	0xbe9a1678	-0.30095267
6	0xbe06058a	-0.1308805
7	0x3df8ccc3	0.1214843
8	0xb9efc7ee	-0.00045734592
9	0xbca909dc	-0.020634584
10	0x3b863091	0.004095145
11	0x3cba6b65	0.022756288
12	0xbc706536	-0.014672568
13	0xbda42691	-0.080151685
14	0xbdf2e602	-0.11860277
15	0x3e3e72a8	0.18598425
16	0xbecda8cc	-0.40167844
17	0x3dd039f1	0.101673014
18	0xbe3f4884	-0.18680006
19	0xbe1e39bc	-0.15451711
20	0xbd79a2aa	-0.060946144
21	0xbe2c29b8	-0.1681279
22	0x3d954f70	0.07290542
23	0xbe32ae76	-0.17449364
24	0xbda3ea5a	-0.080036834
25	0x3d25af68	0.040450484
26	0xbe8d78ae	-0.27631134
27	0xbdc90894	-0.09816089
28	0xbe288910	-0.16458535
29	0xbe9f181a	-0.31073076
30	0xbc63053a	-0.013856227
31	0xbe0f80bb	-0.1401395

3.weight f4 [64, 32]
0	0x3e670117	0.2255901
1	0x3d644d53	0.055737805
2	0x3cbce81f	0.023059903
3	0x3c45376a	0.0120371375
4	0xbdbd83f5	-0.092536844
5	0x3ea29857	0.3175685
6	0x3d0b5ac0	0.034022093
7	0xbdb147eb	-0.086562954
8	0x3d8f3c3c	0.06993911
9	0xbdaf8bcf	-0.08571588
10	0x3d811d45	0.06304411
11	0x3e00e8d6	0.1258882
12	0x3dfb725f	0.12277674
13	0x3c818795	0.01581172
14	0xbe3f534e	-0.18684122
15	0xbd9e20b7	-0.077210836
16	0x3e8842ec	0.26613557
17	0xbc8fb784	-0.017543562
18	0x39be0b2a	0.00036247942
19	0x3b827ef4	0.003982419
20	0xbe5d60d2	-0.21618965
21	0x3e626f02	0.22112659
22	0x3c5500b9	0.013000661
23	0x3dcbcf18	0.099516094
24	0x3e5397b9	0.20663346
25	0x3d7faec2	0.06242252
26	0xbde35cbb	-0.11101671
27	0x3c29ffed	0.010375959
28	0xbc86da6c	-0.016461574
29	0xbdb64925	-0.0890067
30	0xbdbc0aa7	-0.09181719
31	0x3d73e33b	0.059542876
32	0x3dd3c26c	0.103398174
33	0xbe800497	-0.25003502
34	0x3dad2460	0.084542036
35	0x3e4594af	0.19295
36	0xbdd1545b	-0.10221168
37	0x3dad398e	0.08458243
38	0x3d8136a1	0.06309248
39	0xbdac0aa1	-0.08400465
40	0x3c9fe12b	0.019516548
41	0xbe00c824	-0.12576348
42	0x3e210a59	0.15726604
43	0xbdd3bf3b	-0.10339209
44	0x3e863769	0.2621415
45	0xbb29ad80	-0.0025890768
46	0x3c23667e	0.0099731665
47	0x3e400ff4	0.18756086
48	0x3e454d47	0.1926776
49	0xbcbe4481	-0.023226025
50	0xbc96c6bb	-0.018405309
51	0x3e3adda3	0.1824861
52	0xbdd1c5ed	-0.102428295
53	0x3e0ae93f	0.13565539
54	0xbdb78afc	-0.08962056
55	0x3e7487cc	0.23879927
56	0x3e319c2a	0.17344728
57	0xbc515c06	-0.012778288
58	0x3d452816	0.048133932
59	0x3daa51bc	0.08316371
60	0x3e483b54	0.19553882
61	0xbe29ecc6	-0.16594228
62	0x3c47c174	0.012192119
63	0x3df0a610	0.11750424
64	0x3e60bee3	0.21947818
65	0xbbcf9dea	-0.0063359635
66	0xbe484645	-0.19558056
67	0x3e5bf2be	0.21479318
68	0xbdb345bb	-0.087535344
69	0x3de5fd91	0.112300046
70	0xbde2ede3	-0.110805295
71	0xbdcc87ed	-0.09986863
72	0x3e13a96f	0.14420103
73	0xbc7b1274	-0.015324224
74	0xbd8705d7	-0.06592911
75	0xbc04e72b	-0.008111755
76	0x3d82ff61	0.06396366
77	0x3e16d690	0.14730287
78	0xbe3b70f0	-0.18304801
79	0xbd0c4c8e	-0.034252696
80	0x3d446060	0.047943473
81	0x3bf476ee	0.0074604666
82	0x3cdd2891	0.026996883
83	0x3e2c2bf6	0.16813645
84	0xbd8a7813	-0.067611836
85	0x3e88146e	0.26578087
86	0x3e16b04c	0.1471569
87	0x3e7b981a	0.24569741
88	0x3e76ca11	0.2410052
89	0x3d737c64	0.0594448
90	0xbe10e760	-0.14150763
91	0x3e4c3153	0.1994069
92	0x3e4b5bba	0.1985921
93	0xbe049b1f	-0.12949799
94	0xbcccc118	-0.024994418
95	0xbdac68f2	-0.08418454
96	0x3bce0751	0.0062874933
97	0xbe3341f5	-0.1750563
98	0x3e3190cf	0.17340396
99	0xbcecfb79	-0.028928505
100	0xbdb88692	-0.09010042
101	0xbd8d9b34	-0.06914368
102	0x3d3da604	0.046300903
103	0x3e888e57	0.26671097
104	0x3ddfdbd0	0.10930598
105	0x3d5a5ac6	0.053309225
106	0x3e4670fe	0.1937904
107	0x3e56822c	0.20948094
108	0x3d8c575a	0.068525985
109	0xbe71dbbb	-0.23618977
110	0xbc0d6d38	-0.008631997
111	0xbdaed37b	-0.085364304
112	0xbe45997c	-0.19296831
113	0x3d831da4	0.06402138
114	0x3e3e1c8e	0.1856558
115	0x3ded1148	0.11575562
116	0xbd975627	-0.07389479
117	0xbd84eb1b	-0.06490155
118	0x3ca15575	0.01969407
119	0xbe49d07b	-0.19708435
120	0xbe6cf6b6	-0.23140988
121	0xbd82e130	-0.06390607
122	0x3e45cd75	0.19316657
123	0xbe95778a	-0.29192764
124	0xbe880470	-0.26565886
125	0x3e839abf	0.25704
126	0x3d95ad90	0.07308495
127	0x3d4be0c6	0.049774908
128	0xbdf8d080	-0.12149143
129	0x3cef1784	0.029186018
130	0x3e8f1777	0.2794759
131	0x3ded0409	0.11573035
132	0x3e37b27b	0.17939179
133	0xbd9e6d17	-0.07735651
134	0x3e13945b	0.14412062
135	0x3e9f1dee	0.31077522
136	0xbe026986	-0.12735566
137	0x3db7cf91	0.08975137
138	0x3e1e4b97	0.15458523
139	0xbca9c150	-0.020722061
140	0xbe33eee9	-0.17571606
141	0x3e6bd335	0.23029788
142	0x3e281290	0.16413331
143	0x3d859d3a	0.06524129
144	0xbe88a5c8	-0.2668898
145	0x3d379e46	0.044828676
146	0x3e8eafca	0.2786849
147	0xbd91adc8	-0.07113224
148	0x3e17679f	0.14785622
149	0xbd7f476e	-0.06232398
150	0xbe608669	-0.21926273
151	0x3c7a4ee8	0.015277602
152	0xbe4235de	-0.18965861
153	0x3d7c64aa	0.06161944
154	0x3d8e1d80	0.069392204
155	0xbe0d8c9d	-0.13823171
156	0xbe5e456f	-0.21706174
157	0x3e916e67	0.28404543
158	0x3c4bde82	0.012443187
159	0xbe451a5d	-0.19248338
160	0xbe861ac2	-0.2619229
161	0x3ecc694e	0.3992409
162	0x3e5529d4	0.20816737
163	0x3e1fd434	0.15608293
164	0xbd029fe6	-0.031890772
165	0xbe0eb2f9	-0.1393546
166	0x3e0e0e24	0.13872582
167	0x3df31426	0.118690774
168	0xbe2f7c42	-0.17137244
169	0x3e5438cc	0.20724791
170	0xbe289fec	-0.16467255
171	0x3c37899d	0.011202243
172	0xbd115453	-0.03548081
173	0x3d8be724	0.06831196
174	0x3e8ca601	0.274704
175	0x3e5f9fff	0.21838377
176	0xbe8c450c	-0.2739643
177	0xbe4b64b3	-0.19862632
178	0x3e5431e5	0.20722158
179	0x3e2bc42f	0.16774057
180	0x3c97eb19	0.01854472
181	0x3d01f37f	0.031726357
182	0xbdcc92f9	-0.0998897
183	0xbc2133ec	-0.009839039
184	0xbd831da1	-0.06402136
185	0x3c328c27	0.010897673
186	0x3e71767b	0.23580353
187	0xbe8a5d2f	-0.27024218
188	0xbd9de398	-0.07709426
189	0xbbfdb8ed	-0.007742992
190	0xbe3911d1	-0.18073203
191	0x3e1b9f27	0.1519743
192	0x3d294ac6	0.041331075
193	0xbc6d48d1	-0.014482693
194	0xbe158c5f	-0.14604329
195	0x3e932786	0.2874109
196	0xbde1c745	-0.11024336
197	0xbea1acca	-0.3157714
198	0x3d0edbd8	0.034877628
199	0xbd83a1ec	-0.064273685
200	0x3e44fd18	0.19237173
201	0xbe839f4b	-0.25707468
202	0xbdd868a6	-0.10566835
203	0xbdc7bef8	-0.09753221
204	0x3c3d19a3	0.011541757
205	0xbd095155	-0.03352483
206	0x3d969073	0.0735177
207	0x3da18b6e	0.07887922
208	0x3cc607f0	0.024173707
209	0x3e628738	0.22121894
210	0xbe446558	-0.19179285
211	0x3e2509ba	0.16116992
212	0x3d3206d2	0.043463536
213	0x3ea17468	0.31534123
214	0xbdcd5190	-0.100253224
215	0xbe874432	-0.26419216
216	0xbd803b85	-0.062613524
217	0xbdb3da51	-0.08781875
218	0x3dc3012b	0.09521707
219	0x3c588972	0.013216363
220	0xbd2dd572	-0.042439885
221	0xbecc698d	-0.3992428
222	0x3e182dc8	0.14861214
223	0xbe2df7f8	-0.16989124
224	0xbe42a03a	-0.19006434
225	0xbde2b47a	-0.110695794
226	0xbe39c709	-0.18142332
227	0xba898134	-0.0010490776
228	0xbdeca3d1	-0.11554683
229	0xbcdb0b01	-0.026738646
230	0x3cd89056	0.026436012
231	0xbdf8a45c	-0.12140724
232	0xbd38141d	-0.044941057
233	0xbe384857	-0.17996345
234	0xbe33cdbd	-0.17558952
235	0xbe341cc3	-0.17589097
236	0xbd993383	-0.07480528
237	0xbda5b1cf	-0.08090555
238	0xbc15fcab	-0.009154479
239	0xbd4253b8	-0.04744312
240	0x3d81d79e	0.06339954
241	0x3d9cbb2b	0.07652887
242	0x3d66e600	0.05637169
243	0xbde7e4ef	-0.113229625
244	0xbe441d93	-0.19151907
245	0x39856c9e	0.00025448663
246	0xbdd3e311	-0.10346044
247	0x3d54dd33	0.051968765
248	0x3d7155ad	0.058919597
249	0x3d8c5b01	0.06853295
250	0x3dbcbb69	0.09215433
251	0x3dcdbec1	0.10046149
252	0x3c9cc3f9	0.019136416
253	0xbe1dbd79	-0.1540431
254	0x3db99929	0.09062416
255	0xbdcc21e1	-0.099673994

3.bias f4 [64]
0	0x3e580b46	0.2109805
1	0x3c0a3319	0.008435034
2	0x3dffba05	0.12486652
3	0xbde24f67	-0.11050301
4	0xbe0b376f	-0.13595365
5	0x3b5985dd	0.003319136
6	0x3cc0f7e9	0.023555713
7	0xbe31d645	-0.17366894
8	0x3cde07b1	0.027103277
9	0xbda63938	-0.08116382
10	0x3c8ae7a7	0.016956164
11	0x3e560de8	0.20903742
12	0x3d29c38a	0.041446246
13	0x3d5a65e0	0.05331981
14	0xbd02e48e	-0.031956248
15	0x3d706575	0.058690507
16	0xbe5fa815	-0.21841462
17	0xbdb8ece4	-0.09029558
18	0xbe5c79dd	-0.21530862
19	0xbd243192	-0.040086336
20	0x3dba9350	0.09110129
21	0xbe03cd45	-0.12871273
22	0x3d6a344d	0.057178784
23	0x3d07e77d	0.03317975
24	0x3e9eadf4	0.3099209
25	0xbdcf2596	-0.10114591
26	0xbc3fc743	-0.011705223
27	0x3e2c8d35	0.16850741
28	0xbde7e54b	-0.11323031
29	0x3e79fb85	0.24412353
30	0xbd07ba4a	-0.033136643
31	0x3d51f09c	0.051254854
32	0xbe4519ba	-0.19248095
33	0x3daa3057	0.08310001
34	0x3e4ed79a	0.20199433
35	0x3dd41b84	0.10356811
36	0x3dae8921	0.08522249
37	0x3c8d43fe	0.017244335
38	0x3e703504	0.23457724
39	0x3bbbfe1d	0.00573708
40	0x3e83cfc1	0.2574444
41	0xbe0a743b	-0.13520901
42	0xbd73d773	-0.05953164
43	0xbe3023f7	-0.1720122
44	0x3e0339bf	0.12814997
45	0xbbe912d7	-0.0071128416
46	0xbe208de2	-0.15679124
47	0x3e0cb10a	0.1373941
48	0xbdcee460	-0.10102153
49	0x3c705239	0.014668041
50	0x3db57e68	0.08862001
51	0xbcbd6ea4	-0.023124047
52	0x3cc5e2e8	0.024156049
53	0xbd9612d8	-0.07327813
54	0x3e350b86	0.17680177
55	0xbdbe9b44	-0.09306958
56	0x3c16cfa0	0.009204775
57	0x3e84b81f	0.25921723
58	0x3ddb0d66	0.10695915
59	0x3d17dc11	0.037075106
60	0x3db861fa	0.090030625
61	0x3e01ec0e	0.12687704
62	0x3d9250b6	0.07144301
63	0xbbf87279	-0.0075820056

6.weight f4 [1, 64]
0	0x3e26f32c	0.163037
1	0x3e59b9a4	0.21262223
2	0x3e4d493c	0.20047468
3	0xbe245cc5	-0.16051014
4	0xbe580056	-0.21093878
5	0xbeb66a9e	-0.35628217
6	0x3e1c8011	0.15283228
7	0xbabb50db	-0.0014291065
8	0x3d5dd797	0.05416068
9	0xbe2f4343	-0.17115502
10	0x3df10095	0.11767689
11	0x3e260b6e	0.16215298
12	0xbe9f182a	-0.31073123
13	0x3e0d43a1	0.1379533
14	0xbd482c3b	-0.048870306
15	0xbe8a30e0	-0.26990414
16	0x3e33f7ef	0.17575048
17	0x3e8a8ebf	0.27062032
18	0x3e90ad8b	0.28257403
19	0xbe175dd2	-0.14781883
20	0x3e6fbad8	0.23411119
21	0xbe8ba1c9	-0.2727187
22	0xbe492ec2	-0.19646743
23	0x3e179878	0.14804256
24	0x3e517923	0.20456366
25	0x3ea2b342	0.31777388
26	0xbea65d5c	-0.32493103
27	0x3e810680	0.25200272
28	0xbe4612f9	-0.19343175
29	0x3e404bb6	0.18778881
30	0x3eaea652	0.34111267
31	0x3e7118c2	0.235446
32	0x3ecde74a	0.40215522
33	0x3e04ac67	0.12956391
34	0x3d4d0c9e	0.05006086
35	0xbddeef1f	-0.108854525
36	0x3e3b2c13	0.18278532
37	0x3e9beef1	0.30455735
38	0x3e34a07b	0.17639343
39	0xbe514430	-0.20436168
40	0x3e5097a5	0.20370348
41	0x3eb4d75d	0.3532056
42	0xbe9551f0	-0.29164076
43	0x3de857a3	0.113448404
44	0xbe30a80a	-0.17251602
45	0xbe625b12	-0.22105053
46	0xbe9b82e7	-0.30373308
47	0x3dee9a53	0.11650529
48	0xbea3b30b	-0.31972536
49	0xbe5a5eb8	-0.21325195
50	0xbe8d202c	-0.27563608
51	0x3e81738c	0.25283468
52	0xbe8f67ac	-0.28008783
53	0xbe93ffdc	-0.28906143
54	0x3decfebf	0.115720265
55	0xbeb1885d	-0.3467435
56	0xbea11c6b	-0.31466994
57	0x3dfeedfa	0.12447734
58	0xbe8b8292	-0.27248055
59	0xbe899024	-0.26867783
60	0xbdf23a66	-0.11827545
61	0xbe83eef3	-0.2576824
62	0x3de43a72	0.1114396
63	0xbe8a543f	-0.270174
